last_brain.pth (torch_old, 5158 bytes, 12 tensors)

fc1.weight f4 [30, 5]
0	0x3c8e5b5d	0.01737755
1	0xbfe7e320	-1.8116188
2	0x3e3f8acf	0.18705295
3	0xbf154c5f	-0.5831966
4	0x3edfc03a	0.43701345
5	0xc1605eab	-14.023112
6	0xbf95c797	-1.1701535
7	0xbf900e11	-1.1254293
8	0xbee66d17	-0.45005104
9	0x3e4e449b	0.20143358
10	0xc007e995	-2.1236317
11	0xbf3eec3f	-0.7457923
12	0x3fc4e2c4	1.5381703
13	0xbe8b2d81	-0.27183154
14	0x3e5773f4	0.21040326
15	0x3eef09ff	0.46687314
16	0x4005187c	2.0796194
17	0x3e9ff178	0.31238914
18	0xbfaadacb	-1.334802
19	0x3f9c62be	1.2217634
20	0xbe41e78f	-0.18935989
21	0xc010cee7	-2.2626283
22	0x3f91269b	1.1339906
23	0x3ec170a3	0.37781247
24	0x3d7883f3	0.06067271
25	0x3f123c38	0.57123137
26	0x3f051196	0.5197996
27	0xbf20a032	-0.6274444
28	0x3f38f2ca	0.72245467
29	0xbec4db80	-0.38448715
30	0x3e159711	0.14608409
31	0xbef03c82	-0.46921164
32	0xbe4cf006	-0.20013437
33	0x3dedc982	0.116107
34	0x3e08ed79	0.13371839
35	0x3e7ecfac	0.24883908
36	0xbed8776d	-0.42278615
37	0x3f78f3e1	0.9724713
38	0x3fce0966	1.6096618
39	0xbfc40136	-1.531287
40	0x3d2038d9	0.039116714
41	0x3f881a8b	1.06331
42	0x3f13a9cf	0.5768098
43	0x3f443319	0.7664047
44	0xbf8af880	-1.0857086
45	0xc14f99b7	-12.975028
46	0xc161147a	-14.067499
47	0xbd5dcaa4	-0.05414833
48	0xbd4c3231	-0.049852554
49	0x3b273295	0.0025512327
50	0x3f174a44	0.59097695
51	0x3f124e04	0.5715029
52	0x3ee5dc31	0.44894555
53	0x3f5cc3eb	0.8623645
54	0xbeeea219	-0.46608046
55	0x3fd0d16d	1.6313912
56	0x3efe4b33	0.49666747
57	0xbe9fabd2	-0.31185776
58	0xbf9e9f5f	-1.2392386
59	0x3fba8c6f	1.4574107
60	0xbee22c87	-0.44174597
61	0xbe6e1549	-0.23250307
62	0xbe41f68e	-0.1894171
63	0xbdd44a50	-0.103657365
64	0xbe9a016d	-0.30079213
65	0x3f8b093b	1.0862192
66	0x3ff792f2	1.9341719
67	0xbe9790e9	-0.29602745
68	0xbf9d65b0	-1.2296658
69	0x3f258b27	0.64665455
70	0xbf3079a9	-0.6893564
71	0x3dc0444d	0.09388027
72	0x3e253623	0.16133933
73	0x3e8f0e6f	0.279407
74	0x3ef2c531	0.4741607
75	0xbe295ab3	-0.16538505
76	0xbe9a2743	-0.3010808
77	0x3ed7246a	0.4201997
78	0xbf0bed6f	-0.5465917
79	0x3ccaa4a1	0.024736704
80	0x3d45933e	0.048236124
81	0x3fa9e9c8	1.3274469
82	0xbe947c23	-0.2900096
83	0xbf5fb849	-0.8739057
84	0x3ed49196	0.41517323
85	0xbff995ec	-1.9498878
86	0x3e8c2878	0.27374625
87	0xbe4bb66c	-0.19893807
88	0xbfb2abe0	-1.3958702
89	0x3fbd5536	1.4791629
90	0xbf760e65	-0.96115714
91	0xbffdf2dd	-1.9839741
92	0xbf138213	-0.5762035
93	0xbf27bf2e	-0.6552609
94	0x3f224d3e	0.6339911
95	0xbf111235	-0.56668407
96	0x3de96cf6	0.11397736
97	0x3eda7989	0.4267085
98	0xbee8e31b	-0.45485768
99	0x3ea77bf9	0.3271177
100	0x3f04db83	0.5189745
101	0xbd46619d	-0.048432935
102	0x3f0b2f0a	0.5436865
103	0xbe59b0d4	-0.21258861
104	0x3e92c7ff	0.2866821
105	0xbf963e1c	-1.1737704
106	0x3eaec347	0.3413336
107	0xbdb8d442	-0.0902486
108	0xbcce7601	-0.025202753
109	0x3d9b6bd2	0.075889245
110	0x3e0dfb98	0.13865507
111	0xbec9e52e	-0.39432663
112	0xc1824ef1	-16.288546
113	0xbe2de068	-0.16980135
114	0xbefabf28	-0.48973966
115	0xbfed1a57	-1.8523663
116	0xbf818e28	-1.0121508
117	0xbfc59f0c	-1.5439162
118	0xbf6420e8	-0.8911271
119	0x3f717210	0.9431467
120	0x3ec3ba11	0.38227895
121	0xbfb6db41	-1.4285661
122	0x3ef4e3ec	0.4783014
123	0x3d2da73a	0.042395808
124	0xbec8705a	-0.39148217
125	0xc01d6259	-2.4591277
126	0x3fa953e3	1.3228725
127	0x3eed77c4	0.46380436
128	0xbfa7e14a	-1.3115628
129	0x3f1cc300	0.61235046
130	0xbea75451	-0.32681516
131	0xbe81f82c	-0.25384653
132	0xc0da5c81	-6.823792
133	0xbe9fed47	-0.31235716
134	0x3eb38ee1	0.35069945
135	0xbde02f18	-0.109464824
136	0x3f2ceee2	0.67552006
137	0x3f82c10f	1.0215167
138	0x3f2b3f2f	0.66893286
139	0xbe27ca9a	-0.1638588
140	0xbfc0af1d	-1.505344
141	0x3f065796	0.52477396
142	0xbf905b8f	-1.1277941
143	0xbc86a32f	-0.016435234
144	0x3ed10a5f	0.40828225
145	0xbfbf68f5	-1.4953905
146	0x3e88e968	0.26740575
147	0x3d45b2ca	0.04826621
148	0x3f598cb0	0.849803
149	0xbf8facbf	-1.1224593

fc1.bias f4 [30]
0	0x3f467232	0.77518
1	0x3ecfdd12	0.4059835
2	0x3e8da292	0.27663094
3	0xbf11f4a2	-0.57013905
4	0x3e85855d	0.2607831
5	0x3eaba771	0.33526185
6	0xbe65a591	-0.2242644
7	0xbef83c8c	-0.48483694
8	0xbdbcf6ed	-0.09226785
9	0x3dfae5a6	0.12250833
10	0xbf727f8b	-0.94725865
11	0xbf47302e	-0.7780789
12	0xbe5eba89	-0.21750845
13	0xbe4f0754	-0.20217639
14	0x3f0e4955	0.55580646
15	0x3f0ed72f	0.55797094
16	0x3f03052c	0.51179767
17	0x3ea3b61a	0.3197487
18	0x3eca60d1	0.3952699
19	0x3f3bf8ce	0.7342652
20	0x3ee6f844	0.45111287
21	0x3f55997a	0.8343731
22	0x3dce3f40	0.10070658
23	0xbf15cf20	-0.5851917
24	0x3f1150c7	0.5676388
25	0x3e85f4d7	0.2616336
26	0x3eaac964	0.33356774
27	0x3d0a8dc3	0.0338266
28	0x3f2b48af	0.6690778
29	0xbec51cf6	-0.38498658

fc2.weight f4 [3, 30]
0	0xbf0a6242	-0.5405618
1	0x4003f52a	2.0618386
2	0x3f251fa5	0.6450141
3	0xbf865392	-1.0494254
4	0x3f8a679f	1.0812873
5	0xbf080b04	-0.5314181
6	0x3e0ee4a4	0.13954407
7	0xbfaa603c	-1.3310618
8	0x3f4a934d	0.79131013
9	0x40208c9e	2.5085826
10	0xbe9354b3	-0.28775558
11	0x400b538e	2.1769748
12	0xbbb25220	-0.005441919
13	0xbfd6fc13	-1.6795677
14	0xbee43972	-0.44575077
15	0xbe914531	-0.283731
16	0x3f0061a3	0.5014898
17	0xbfcbc3a1	-1.5919076
18	0x3ce13e05	0.027495394
19	0xbece5e0e	-0.40306133
20	0x3d793e7d	0.06085061
21	0xbf33d3d3	-0.70245093
22	0x40370555	2.8597004
23	0xc002be4c	-2.0428648
24	0xbebbfab5	-0.36714712
25	0x3fd46820	1.6594276
26	0x3eea5d75	0.45774427
27	0xbd5e10af	-0.05421513
28	0x4002e961	2.0454943
29	0xbe8967a6	-0.2683689
30	0xbf872528	-1.0558214
31	0x3fe5bede	1.7948873
32	0x3f0166d5	0.50547534
33	0xbfa5ed17	-1.2962979
34	0x3f887179	1.0659629
35	0xbf1e41fe	-0.61819446
36	0x3db4e5af	0.08832871
37	0xbf8ef6ee	-1.1169107
38	0xbf753d51	-0.95796686
39	0x405ab1b3	3.417096
40	0x3f8481b0	1.0352077
41	0x3ffe6224	1.98737
42	0x3dca414a	0.09875734
43	0xbfadc64f	-1.3576144
44	0xbe8cf196	-0.27528065
45	0xbe7fe17a	-0.24988356
46	0x3f83ec65	1.0306517
47	0xbfaa998c	-1.3328109
48	0x3f96b0b6	1.1772678
49	0xbebf4a69	-0.37361458
50	0x3dd3536c	0.10318646
51	0xbee3e942	-0.445139
52	0x3ec4480b	0.38336214
53	0xbfd1b88b	-1.6384443
54	0x3d14255f	0.036168452
55	0x3f556fc4	0.83373666
56	0xbc2f32af	-0.010693236
57	0x3eb40564	0.35160363
58	0x3f4b0742	0.7930795
59	0x3f9d1684	1.2272496
60	0xbda5d274	-0.080967814
61	0x3fa00565	1.2501646
62	0x3f96104d	1.1723725
63	0xbf7bebab	-0.98406476
64	0x3f62e121	0.8862477
65	0x3e3013c3	0.17195038
66	0x3df3cf3c	0.11904761
67	0xbf542b9e	-0.82879055
68	0x3f150451	0.5820971
69	0x400490f5	2.0713475
70	0xbe8c8738	-0.27446914
71	0x3fc4a709	1.5363475
72	0x3bf786c0	0.0075539052
73	0xbf78cec9	-0.9719053
74	0xbcae6eb2	-0.021293018
75	0xbec8b44f	-0.39200065
76	0x3f3148b2	0.6925155
77	0xbfa3f303	-1.2808536
78	0xbf18f2d4	-0.59745526
79	0xbf0a3850	-0.53992176
80	0xbf2d835d	-0.6777857
81	0x3d05540d	0.03255086
82	0x4070665f	3.7562482
83	0xbfd2c6e0	-1.6466942
84	0xbf97b0cd	-1.185083
85	0x3f707bdc	0.93938994
86	0x3fd54883	1.6662754
87	0xbf1ae1d6	-0.6050085
88	0x3f67508b	0.90357274
89	0xbf928cf6	-1.1449268

fc2.bias f4 [3]
0	0xbf092496	-0.5357145
1	0xbd3b0bf8	-0.04566571
2	0xbea1b750	-0.3158517

exp_avg f4 [30, 5]
0	0xba4a83e2	-0.00077253405
1	0xb9d5c821	-0.00040775634
2	0xbb19fbb8	-0.0023495983
3	0x3a91f77e	0.001113638
4	0xba91f77e	-0.001113638
5	0x3623aedf	2.439068e-06
6	0x3a281590	0.00064119045
7	0x3932b253	0.00017041834
8	0xbb12f1a4	-0.002242186
9	0x3b12f1a4	0.002242186
10	0x382461bc	3.919167e-05
11	0x3a9d7730	0.001201367
12	0x3b67fd05	0.0035398614
13	0x380e7e30	3.397296e-05
14	0xb80e7e30	-3.397296e-05
15	0x3aad8a47	0.0013240062
16	0x3b269f7c	0.002542465
17	0xba62713a	-0.0008638088
18	0x3b1db5ae	0.0024064588
19	0xbb1db5ae	-0.0024064588
20	0x3a117ddf	0.0005550067
21	0x3a74b5aa	0.00093349314
22	0x3b8ccde5	0.0042970055
23	0xba7cb4d2	-0.00096399814
24	0x3a7cb4d2	0.00096399814
25	0xb983d76c	-0.0002514677
26	0x3a0cd1ae	0.0005371821
27	0x393c4ba0	0.0001795725
28	0x3b185d8a	0.0023249113
29	0xbb185d8a	-0.0023249113
30	0x00000004	6e-45
31	0x00000004	6e-45
32	0x00000004	6e-45
33	0x00000004	6e-45
34	0x80000004	-6e-45
35	0x3b3a3696	0.0028413883
36	0x3b4a1203	0.003083349
37	0x390ea9c8	0.00013605424
38	0x3b3d3c3b	0.0028875011
39	0xbb3d3c3b	-0.0028875011
40	0xbb2625c0	-0.002535209
41	0xbac8cfb2	-0.0015320687
42	0xba942226	-0.0011301681
43	0x39fe2714	0.0004847577
44	0xb9fe2714	-0.0004847577
45	0x3675d8ad	3.6633967e-06
46	0x37d01658	2.4805937e-05
47	0xbb0cdeb8	-0.0021495055
48	0x3782b600	1.5581958e-05
49	0xb782b600	-1.5581958e-05
50	0x3ae15ba2	0.0017193446
51	0x3a92e7be	0.001120798
52	0x3ada1887	0.001663939
53	0xba39de59	-0.00070903223
54	0x3a39de59	0.00070903223
55	0x3a3d2196	0.00072147825
56	0xb910fa78	-0.00013826217
57	0x3a123c05	0.00055784016
58	0x3a0c80fe	0.00053597975
59	0xba0c80fe	-0.00053597975
60	0x00000000	0.0
61	0x00000000	0.0
62	0x00000000	0.0
63	0x00000004	6e-45
64	0x80000004	-6e-45
65	0x3b251a8e	0.002519283
66	0x3b592fee	0.003314014
67	0x3b452276	0.0030080355
68	0x3b49e222	0.0030804952
69	0xbb49e222	-0.0030804952
70	0x379bd290	1.857549e-05
71	0x3a0a62ae	0.00052789866
72	0xba4b228f	-0.0007748985
73	0x3a898ebb	0.0010494808
74	0xba898ebb	-0.0010494808
75	0x3a736e23	0.0009286126
76	0x3a22a233	0.0006203979
77	0xb99f9016	-0.00030434196
78	0x3a1cc53b	0.00059803174
79	0xba1cc53b	-0.00059803174
80	0xba7e638f	-0.00097041664
81	0xba96a7b4	-0.0011494071
82	0x3a4804d8	0.00076301163
83	0xbaa0f510	-0.0012280066
84	0x3aa0f510	0.0012280066
85	0xb9943434	-0.00028267654
86	0xbaabc76c	-0.0013105697
87	0xbb85fe69	-0.004089166
88	0x3997eb5c	0.0002897632
89	0xb997eb5c	-0.0002897632
90	0x37fa09ac	2.9806826e-05
91	0xb7f97e66	-2.9741972e-05
92	0xba3e187a	-0.0007251572
93	0x393e97ac	0.00018176314
94	0xb93e97ac	-0.00018176314
95	0x3aa649e2	0.0012686814
96	0x3a6019b4	0.0008548752
97	0xb9f482e8	-0.0004663684
98	0x3a5b7a82	0.0008372442
99	0xba5b7a82	-0.0008372442
100	0x3aedc517	0.0018140402
101	0x39aee90d	0.00033361503
102	0x3a3f7354	0.0007303257
103	0xba32a853	-0.00068152434
104	0x3a32a853	0.00068152434
105	0x389108d4	6.915783e-05
106	0x3a482c78	0.0007636021
107	0xba8f9b30	-0.0010956284
108	0x3ab57efc	0.0013847048
109	0xbab57efc	-0.0013847048
110	0x385b7f54	5.2332252e-05
111	0x3b3defd4	0.002898206
112	0x37128ec6	8.73552e-06
113	0xbb0382bf	-0.0020066944
114	0x3b0382bf	0.0020066944
115	0x379d3b02	1.8743336e-05
116	0x390dbf0a	0.00013517975
117	0x38b7b141	8.759136e-05
118	0xbacb674d	-0.0015518457
119	0x3acb674d	0.0015518457
120	0x3b433f5a	0.00297924
121	0x39cf03fe	0.0003948509
122	0xb822c980	-3.881147e-05
123	0x38aae0cd	8.148104e-05
124	0xb8aae0cd	-8.148104e-05
125	0x392de61c	0.00016584288
126	0x39acfdda	0.0003299553
127	0x3b8a1eaf	0.0042150836
128	0xb896fc5e	-7.1995644e-05
129	0x3896fc5e	7.1995644e-05
130	0xba4e2958	-0.0007864437
131	0x3ab05c4d	0.0013455242
132	0xb789e133	-1.643654e-05
133	0x3974903a	0.00023323382
134	0xb974903a	-0.00023323382
135	0x3adb7ff0	0.0016746502
136	0x3983e5d0	0.0002515749
137	0x3a698d52	0.0008909303
138	0xba0eb308	-0.0005443548
139	0x3a0eb308	0.0005443548
140	0xb9c39c57	-0.0003730978
141	0xba452aaf	-0.0007521314
142	0x3a6e7b89	0.00090973877
143	0xba90403e	-0.0011005474
144	0x3a90403e	0.0011005474
145	0xb9be9a22	-0.00036354462
146	0xbb1d33ac	-0.0023987098
147	0xbac49454	-0.0014997819
148	0xbb105b89	-0.0022027215
149	0x3b105b89	0.0022027215

exp_avg_sq f4 [30, 5]
0	0x37d7258b	2.564748e-05
1	0x37010cbe	7.691966e-06
2	0x394b2904	0.00019374868
3	0x384fb44b	4.9520557e-05
4	0x384fb44b	4.9520557e-05
5	0x31fc1a58	7.33716e-09
6	0x3711a7c3	8.681734e-06
7	0x379bea0a	1.8586423e-05
8	0x39123dc3	0.00013946653
9	0x39123dc3	0.00013946653
10	0x36b879d7	5.4978113e-06
11	0x37ba1f09	2.218738e-05
12	0x38ae77e2	8.3192965e-05
13	0x3883c3cb	6.283036e-05
14	0x3883c3cb	6.283036e-05
15	0x391c8ad5	0.00014929038
16	0x3939a2da	0.00017703642
17	0x3983d278	0.00025143079
18	0x38d04ad4	9.932151e-05
19	0x38d04ad4	9.932151e-05
20	0x37ed6255	2.8298391e-05
21	0x36e611d8	6.8566114e-06
22	0x398506db	0.00025372845
23	0x38b3cdcb	8.573717e-05
24	0x38b3cdcb	8.573717e-05
25	0x37d48f30	2.5339046e-05
26	0x37dde152	2.6450176e-05
27	0x3876c171	5.8831127e-05
28	0x37ace276	2.0609452e-05
29	0x37ace276	2.0609452e-05
30	0x08cb7bd5	1.2246731e-33
31	0x000454ea	3.97803e-40
32	0x01a934fd	6.215683e-38
33	0x07b56beb	2.7297282e-34
34	0x07b56beb	2.7297282e-34
35	0x389e240e	7.540743e-05
36	0x38afef1e	8.389189e-05
37	0x398dd15e	0.00027049606
38	0x38b12c5f	8.4482825e-05
39	0x38b12c5f	8.4482825e-05
40	0x38a04d96	7.643846e-05
41	0x38a94c81	8.072798e-05
42	0x39681c02	0.00022135678
43	0x386707b3	5.5081862e-05
44	0x386707b3	5.5081862e-05
45	0x3131920d	2.583991e-09
46	0x31596de2	3.1640117e-09
47	0x3a0d5b81	0.0005392358
48	0x39d246f0	0.00040107174
49	0x39d246f0	0.00040107174
50	0x382f4f60	4.1797175e-05
51	0x38211616	3.840596e-05
52	0x3865e795	5.4813532e-05
53	0x37da50b0	2.6025198e-05
54	0x37da50b0	2.6025198e-05
55	0x39a22efd	0.00030934057
56	0x39a6c58f	0.0003180918
57	0x39bd72b1	0.0003613434
58	0x395b3071	0.00020903513
59	0x395b3071	0.00020903513
60	0x00000000	0.0
61	0x00000000	0.0
62	0x00000000	0.0
63	0x04da72a1	5.1356824e-36
64	0x04da72a1	5.1356824e-36
65	0x394a875f	0.00019314651
66	0x39744bb0	0.00023297849
67	0x39a8fe9c	0.00032233156
68	0x39102e0e	0.00013750067
69	0x39102e0e	0.00013750067
70	0x36da2b96	6.5019804e-06
71	0x370088a2	7.661207e-06
72	0x37dc6d77	2.6277017e-05
73	0x371af74e	9.236695e-06
74	0x371af74e	9.236695e-06
75	0x373dfefb	1.1324645e-05
76	0x378b9fc6	1.6644492e-05
77	0x37ceb6b4	2.4642191e-05
78	0x3749db87	1.2031646e-05
79	0x3749db87	1.2031646e-05
80	0x38c956f5	9.600624e-05
81	0x38dde123	0.00010580036
82	0x39845419	0.0002523966
83	0x389eb0b5	7.566941e-05
84	0x389eb0b5	7.566941e-05
85	0x38170473	3.600535e-05
86	0x38a3cec9	7.8109624e-05
87	0x391a5d67	0.0001472138
88	0x38eb110a	0.00011208847
89	0x38eb110a	0.00011208847
90	0x35a40c0b	1.2222457e-06
91	0x35b8a197	1.3756097e-06
92	0x387a1155	5.9620786e-05
93	0x383e4430	4.5363035e-05
94	0x383e4430	4.5363035e-05
95	0x37c7e604	2.3829758e-05
96	0x38111479	3.458976e-05
97	0x385e4e16	5.3001648e-05
98	0x37d66876	2.5559431e-05
99	0x37d66876	2.5559431e-05
100	0x37c539b1	2.3511095e-05
101	0x382a11d9	4.054778e-05
102	0x37dce834	2.6334172e-05
103	0x37cec050	2.4646666e-05
104	0x37cec050	2.4646666e-05
105	0x36b4d910	5.3896874e-06
106	0x373795cf	1.094253e-05
107	0x386d15bd	5.652545e-05
108	0x37b15cb0	2.1143205e-05
109	0x37b15cb0	2.1143205e-05
110	0x377143b6	1.4380485e-05
111	0x38693b84	5.5606957e-05
112	0x321d4137	9.153431e-09
113	0x399701fe	0.0002880245
114	0x399701fe	0.0002880245
115	0x338057ae	5.976413e-08
116	0x36ab863a	5.111823e-06
117	0x36b5c34d	5.4169564e-06
118	0x38a585bc	7.892723e-05
119	0x38a585bc	7.892723e-05
120	0x383b48c4	4.4652043e-05
121	0x38714e56	5.7531834e-05
122	0x3882b823	6.233181e-05
123	0x38674f5d	5.5148605e-05
124	0x38674f5d	5.5148605e-05
125	0x380a21f5	3.293339e-05
126	0x38c7e110	9.5309806e-05
127	0x3960608e	0.00021398274
128	0x38a34bb9	7.78655e-05
129	0x38a34bb9	7.78655e-05
130	0x364a9045	3.0184322e-06
131	0x382aa429	4.0684045e-05
132	0x330ce8f7	3.280817e-08
133	0x3889f312	6.5779444e-05
134	0x3889f312	6.5779444e-05
135	0x37db6be1	2.615707e-05
136	0x381a8768	3.6842568e-05
137	0x38496f74	4.8025933e-05
138	0x37b55e87	2.16209e-05
139	0x37b55e87	2.16209e-05
140	0x362b9374	2.5566815e-06
141	0x3885700a	6.362803e-05
142	0x38609da3	5.3552572e-05
143	0x38f7293c	0.00011785558
144	0x38f7293c	0.00011785558
145	0x373fcea9	1.1432604e-05
146	0x380013bf	3.0535968e-05
147	0x380a985f	3.304367e-05
148	0x38921a3a	6.9667076e-05
149	0x38921a3a	6.9667076e-05

exp_avg f4 [30]
0	0xba4cb9ad	-0.000780965
1	0xbc152774	-0.009103645
2	0x3b187218	0.0023261365
3	0xba946d44	-0.0011324068
4	0xba9c15a0	-0.00119083
5	0x3b1b7e28	0.0023726318
6	0x00000004	6e-45
7	0x3b97c9ac	0.0046321955
8	0xba0cc4b8	-0.00053698895
9	0xbce89f24	-0.028396197
10	0x3ad346bc	0.0016119103
11	0xbb135ae1	-0.0022484588
12	0x00000004	6e-45
13	0x3a95293d	0.0011380088
14	0x3ab21f3e	0.0013589633
15	0xb9189cf3	-0.00014554318
16	0x3b0af8b0	0.0021205358
17	0xbb9c9154	-0.0047780667
18	0x3a801d65	0.0009774385
19	0xb9814605	-0.00024656966
20	0xbaef3bbc	-0.0018252055
21	0x3b2575fb	0.0025247324
22	0xbc3fef4a	-0.011714766
23	0x3b47e0bf	0.003049895
24	0xbad00f5b	-0.0015873717
25	0x3b948622	0.0045325914
26	0xbb5237aa	-0.0032076635
27	0xbb34ecd4	-0.002760698
28	0xbc03d748	-0.0080469325
29	0xbbc8a812	-0.006123551

exp_avg_sq f4 [30]
0	0x3a1712a2	0.00057629694
1	0x3ac6ae01	0.0015158058
2	0x3a327ffd	0.0006809233
3	0x3a0b8590	0.00053223316
4	0x3a808608	0.000980557
5	0x39753a8e	0.00023386834
6	0x08cbb054	1.2259073e-33
7	0x3a6b407f	0.0008974149
8	0x3a2146ce	0.00061522133
9	0x3b8b0cec	0.0042434838
10	0x389ea91c	7.565526e-05
11	0x3a49c884	0.00076974207
12	0x04f6aa01	5.7990446e-36
13	0x3a50ab97	0.0007960139
14	0x38bc896c	8.9901354e-05
15	0x38f159e4	0.00011508519
16	0x3a4cc454	0.00078112376
17	0x3a4881b4	0.0007648722
18	0x39eaf48a	0.00044814154
19	0x3978367c	0.0002367142
20	0x39648840	0.00021794531
21	0x3965e563	0.00021924595
22	0x3b6b2e82	0.0035885875
23	0x39296e3f	0.00016158166
24	0x3a127d42	0.0005588123
25	0x3a6d05f7	0.00090417214
26	0x3a4d6b73	0.00078361406
27	0x39602a98	0.00021378172
28	0x3aaa20f0	0.0012979787
29	0x39b63355	0.0003475199

exp_avg f4 [3, 30]
0	0xba0a68ce	-0.00052798993
1	0xbaa46b8a	-0.0012544256
2	0x3b440ba8	0.0029914174
3	0x3a0af25e	0.0005300398
4	0x3aa6f02c	0.0012736372
5	0xbb9a4bde	-0.004708751
6	0x00000000	0.0
7	0xbad5770d	-0.001628609
8	0xbb830aa0	-0.0039990693
9	0xb9e39d64	-0.0004341408
10	0xbadd4b1c	-0.0016883346
11	0x35c4d940	1.4666366e-06
12	0x00000000	0.0
13	0xba6831ee	-0.0008857538
14	0xbab13591	-0.0013519992
15	0xb9e8faf0	-0.0004443745
16	0xbb12bb34	-0.0022389414
17	0x3a1c9a0c	0.00059738825
18	0xb9e68ea5	-0.00043975297
19	0xba8ac1f2	-0.0010586365
20	0xba883a7c	-0.0010393406
21	0xbb42aee8	-0.0029706303
22	0xba026020	-0.000497343
23	0xb7964fcc	-1.7918552e-05
24	0xbaad421d	-0.0013218556
25	0x39aa2a18	0.0003245629
26	0xba3b5b61	-0.00071471004
27	0xbad3a1a8	-0.00161462
28	0xbb837484	-0.0040116925
29	0xb9959afa	-0.0002853496
30	0x3ad86586	0.0016509749
31	0x39be574e	0.0003630467
32	0x39f6d518	0.00047079544
33	0x3b41a0f4	0.0029545398
34	0x39d50ae0	0.00040634628
35	0xbab50dda	-0.0013813332
36	0x00000004	6e-45
37	0xbb4ccc18	-0.003124958
38	0xbb17b617	-0.0023149305
39	0xb9d53986	-0.00040669384
40	0xba86b114	-0.0010276162
41	0x3b032e37	0.002001656
42	0x00000004	6e-45
43	0x3b3dd492	0.0028965813
44	0x39af5608	0.000334427
45	0x3af4ae8c	0.0018667742
46	0x3b18991c	0.002328462
47	0xb92353c8	-0.00015576102
48	0xb88e5608	-6.787112e-05
49	0x3b01447e	0.0019724662
50	0x3b2e3e32	0.0026587364
51	0x382d96c0	4.138681e-05
52	0x39067c7c	0.0001282561
53	0xb9a5ccf6	-0.0003162396
54	0x3a6565a4	0.00087508024
55	0x3a905e64	0.0011014459
56	0x3ab5289e	0.0013821309
57	0xb9954120	-0.00028468017
58	0x39397cee	0.00017689515
59	0xba9aa49a	-0.0011798323
60	0xb9110b90	-0.00013832585
61	0xba82d635	-0.0009982052
62	0x3b244fd4	0.0025071995
63	0xbb96a84c	-0.0045976993
64	0x39906155	0.00027538338
65	0x397deaa8	0.00024215376
66	0x00000000	0.0
67	0xba65ff4e	-0.00087737
68	0xba538d89	-0.00080701016
69	0xba13ca9c	-0.0005637796
70	0xbaf89148	-0.0018964196
71	0xbae8e7a8	-0.0017769234
72	0x00000000	0.0
73	0xbb9ecc6c	-0.0048461463
74	0x3b3f7171	0.0029211903
75	0x3ab8d8c2	0.0014102685
76	0xba10e648	-0.00055274786
77	0x39f33dc9	0.00046394605
78	0xba98b0df	-0.0011649391
79	0x3b23e073	0.0025005608
80	0xba787300	-0.00094775856
81	0x3b9a8be2	0.0047163824
82	0xb9e9dab1	-0.0004460416
83	0xb9094801	-0.00013092162
84	0x3a32df49	0.0006823433
85	0x3b02c51a	0.0019953907
86	0xba016e6b	-0.0004937413
87	0xba22fdb0	-0.0006217612
88	0x3b266cf4	0.002539453
89	0x3a27ecef	0.000640585

exp_avg_sq f4 [3, 30]
0	0x39081f2f	0.00012981587
1	0x37a95bea	2.018917e-05
2	0x38fdb07d	0.000120968536
3	0x38d18230	9.990146e-05
4	0x38bf381c	9.118041e-05
5	0x388750c9	6.452349e-05
6	0x00000000	0.0
7	0x38d466b5	0.000101280784
8	0x39088f88	0.0001302344
9	0x35e74ec2	1.7233763e-06
10	0x374e4ebf	1.2296891e-05
11	0x3832c6e2	4.262373e-05
12	0x00000000	0.0
13	0x38c8af13	9.569353e-05
14	0x38b0ec4c	8.436348e-05
15	0x38d4315e	0.00010118143
16	0x38ff5718	0.0001217557
17	0x38e0072e	0.0001068249
18	0x37fe55cf	3.0319117e-05
19	0x3937bd43	0.00017522745
20	0x38f665fe	0.000117491916
21	0x39310287	0.00016880977
22	0x3593a04e	1.0999008e-06
23	0x369ae5e7	4.616322e-06
24	0x38fa5477	0.00011936662
25	0x38d2c062	0.000100494144
26	0x3774c7e6	1.4590076e-05
27	0x39028899	0.00012448653
28	0x3899a0cb	7.3255585e-05
29	0x3751f29f	1.251386e-05
30	0x39c0abd0	0.00036749104
31	0x380a9019	3.3035965e-05
32	0x39d71a57	0.0004102762
33	0x3a1ee89e	0.00060618843
34	0x39b7e7cf	0.0003507719
35	0x38b76d6e	8.746503e-05
36	0x04a4b54a	3.8722702e-36
37	0x39af866e	0.0003347876
38	0x3990320a	0.00027503102
39	0x366731b3	3.445061e-06
40	0x37edd343	2.8350978e-05
41	0x39938648	0.00028138072
42	0x0431fd1c	2.0922472e-36
43	0x3a109d87	0.00055166375
44	0x392852b7	0.00016052542
45	0x399e7dd6	0.00030229863
46	0x39c25314	0.00037064462
47	0x399774f3	0.00028888098
48	0x389cd2c4	7.477918e-05
49	0x39f26625	0.0004623394
50	0x39f36091	0.0004642052
51	0x3985a58e	0.00025491085
52	0x356d46c0	8.8392335e-07
53	0x37520103	1.2517211e-05
54	0x39b6a779	0.00034838522
55	0x3982975f	0.00024908312
56	0x37b77437	2.1869417e-05
57	0x39b8b4f7	0.00035230044
58	0x38aba632	8.184872e-05
59	0x382444f3	3.916486e-05
60	0x38ddae57	0.000105705745
61	0x37b1778a	2.1155709e-05
62	0x38494462	4.798582e-05
63	0x39b12a39	0.0003379153
64	0x382411cd	3.9117225e-05
65	0x3979154c	0.00023754424
66	0x00000000	0.0
67	0x395a3300	0.00020809099
68	0x39c3dc78	0.0003735756
69	0x3607e129	2.0247628e-06
70	0x387bee3b	6.0064933e-05
71	0x38d61b41	0.000102093916
72	0x00000000	0.0
73	0x39d2c9b3	0.000402046
74	0x38f53093	0.00011691558
75	0x38d168ea	9.9854384e-05
76	0x39b34929	0.0003419605
77	0x39345953	0.00017199414
78	0x37c54c9a	2.35199e-05
79	0x39631762	0.00021657118
80	0x392d03ef	0.00016500031
81	0x399338c9	0.00028080333
82	0x36c497d1	5.858929e-06
83	0x365ddb65	3.305927e-06
84	0x38eec494	0.0001138534
85	0x39434db7	0.000186256
86	0x37abf00c	2.0496569e-05
87	0x396ffbc4	0.00022886606
88	0x3929a05b	0.00016176833
89	0x37d71b53	2.5642721e-05

exp_avg f4 [3]
0	0xbb88b989	-0.004172508
1	0x3aab2000	0.0013055801
2	0x3b26fcf4	0.0025480362

exp_avg_sq f4 [3]
0	0x398fccde	0.00027427723
1	0x3a12f2aa	0.0005605618
2	0x39ee3e8d	0.000454415
